…
Training bathy shape: (608, 128, 64)
-----
Validation data shape: (0, 128, 64, 126)
Validation labels shape: (0, 128, 64)
Validation bathy shape: (0, 128, 64)
-----
Test data shape: (672, 128, 64, 126)
Test labels shape: (672, 128, 64)
Test bathy shape: (672, 128, 64)
##########
##########


Model: "model"
__________________________________________________________________________________________________
 Layer (type)                Output Shape                 Param #   Connected to                  
==================================================================================================
 input_1 (InputLayer)        [(None, 608, 128, 64, 126)   0         []                            
                             ]                                                                    
                                                                                                  
 conv3d (Conv3D)             (None, 608, 128, 64, 64)     217792    ['input_1[0][0]']             
                                                                                                  
 conv3d_1 (Conv3D)           (None, 608, 128, 64, 64)     110656    ['conv3d[0][0]']              
                                                                                                  
 max_pooling3d (MaxPooling3  (None, 304, 64, 32, 64)      0         ['conv3d_1[0][0]']            
 D)                                                                                               
                                                                                                  
 conv3d_2 (Conv3D)           (None, 304, 64, 32, 128)     221312    ['max_pooling3d[0][0]']       
                                                                                                  
 conv3d_3 (Conv3D)           (None, 304, 64, 32, 128)     442496    ['conv3d_2[0][0]']            
                                                                                                  
 max_pooling3d_1 (MaxPoolin  (None, 152, 32, 16, 128)     0         ['conv3d_3[0][0]']            
 g3D)                                                                                             
                                                                                                  
 conv3d_4 (Conv3D)           (None, 152, 32, 16, 256)     884992    ['max_pooling3d_1[0][0]']     
                                                                                                  
 conv3d_5 (Conv3D)           (None, 152, 32, 16, 256)     1769728   ['conv3d_4[0][0]']            
                                                                                                  
 max_pooling3d_2 (MaxPoolin  (None, 76, 16, 8, 256)       0         ['conv3d_5[0][0]']            
 g3D)                                                                                             
                                                                                                  
 conv3d_6 (Conv3D)           (None, 76, 16, 8, 512)       3539456   ['max_pooling3d_2[0][0]']     
                                                                                                  
 conv3d_7 (Conv3D)           (None, 76, 16, 8, 512)       7078400   ['conv3d_6[0][0]']            
                                                                                                  
 dropout (Dropout)           (None, 76, 16, 8, 512)       0         ['conv3d_7[0][0]']            
                                                                                                  
 max_pooling3d_3 (MaxPoolin  (None, 38, 8, 4, 512)        0         ['dropout[0][0]']             
 g3D)                                                                                             
                                                                                                  
 conv3d_8 (Conv3D)           (None, 38, 8, 4, 1024)       1415680   ['max_pooling3d_3[0][0]']     
                                                          0                                       
                                                                                                  
 conv3d_9 (Conv3D)           (None, 38, 8, 4, 1024)       2831257   ['conv3d_8[0][0]']            
                                                          6                                       
                                                                                                  
 dropout_1 (Dropout)         (None, 38, 8, 4, 1024)       0         ['conv3d_9[0][0]']            
                                                                                                  
 conv3d_transpose (Conv3DTr  (None, 76, 16, 8, 512)       4194816   ['dropout_1[0][0]']           
 anspose)                                                                                         
                                                                                                  
 concatenate (Concatenate)   (None, 76, 16, 8, 1024)      0         ['dropout[0][0]',             
                                                                     'conv3d_transpose[0][0]']    
                                                                                                  
 conv3d_10 (Conv3D)          (None, 76, 16, 8, 512)       1415628   ['concatenate[0][0]']         
                                                          8                                       
                                                                                                  
 conv3d_11 (Conv3D)          (None, 76, 16, 8, 512)       7078400   ['conv3d_10[0][0]']           
                                                                                                  
 conv3d_transpose_1 (Conv3D  (None, 152, 32, 16, 256)     1048832   ['conv3d_11[0][0]']           
 Transpose)                                                                                       
                                                                                                  
 concatenate_1 (Concatenate  (None, 152, 32, 16, 512)     0         ['conv3d_5[0][0]',            
 )                                                                   'conv3d_transpose_1[0][0]']  
                                                                                                  
 conv3d_12 (Conv3D)          (None, 152, 32, 16, 256)     3539200   ['concatenate_1[0][0]']       
                                                                                                  
 conv3d_13 (Conv3D)          (None, 152, 32, 16, 256)     1769728   ['conv3d_12[0][0]']           
                                                                                                  
 conv3d_transpose_2 (Conv3D  (None, 304, 64, 32, 128)     262272    ['conv3d_13[0][0]']           
 Transpose)                                                                                       
                                                                                                  
 concatenate_2 (Concatenate  (None, 304, 64, 32, 256)     0         ['conv3d_3[0][0]',            
 )                                                                   'conv3d_transpose_2[0][0]']  
                                                                                                  
 conv3d_14 (Conv3D)          (None, 304, 64, 32, 128)     884864    ['concatenate_2[0][0]']       
                                                                                                  
 conv3d_15 (Conv3D)          (None, 304, 64, 32, 128)     442496    ['conv3d_14[0][0]']           
                                                                                                  
 conv3d_transpose_3 (Conv3D  (None, 608, 128, 64, 64)     65600     ['conv3d_15[0][0]']           
 Transpose)                                                                                       
                                                                                                  
 concatenate_3 (Concatenate  (None, 608, 128, 64, 128)    0         ['conv3d_1[0][0]',            
 )                                                                   'conv3d_transpose_3[0][0]']  
                                                                                                  
 conv3d_16 (Conv3D)          (None, 608, 128, 64, 64)     221248    ['concatenate_3[0][0]']       
                                                                                                  
 conv3d_17 (Conv3D)          (None, 608, 128, 64, 64)     110656    ['conv3d_16[0][0]']           
                                                                                                  
 conv3d_18 (Conv3D)          (None, 608, 128, 64, 1)      65        ['conv3d_17[0][0]']           
                                                                                                  
 conv3d_19 (Conv3D)          (None, 551, 128, 64, 1)      59        ['conv3d_18[0][0]']           
                                                                                                  
 conv3d_20 (Conv3D)          (None, 494, 128, 64, 1)      59        ['conv3d_19[0][0]']           
                                                                                                  
 conv3d_21 (Conv3D)          (None, 437, 128, 64, 1)      59        ['conv3d_20[0][0]']           
                                                                                                  
 conv3d_22 (Conv3D)          (None, 380, 128, 64, 1)      59        ['conv3d_21[0][0]']           
                                                                                                  
 conv3d_23 (Conv3D)          (None, 323, 128, 64, 1)      59        ['conv3d_22[0][0]']           
                                                                                                  
 conv3d_24 (Conv3D)          (None, 266, 128, 64, 1)      59        ['conv3d_23[0][0]']           
                                                                                                  
 conv3d_25 (Conv3D)          (None, 209, 128, 64, 1)      59        ['conv3d_24[0][0]']           
                                                                                                  
 conv3d_26 (Conv3D)          (None, 152, 128, 64, 1)      59        ['conv3d_25[0][0]']           
                                                                                                  
 conv3d_27 (Conv3D)          (None, 95, 128, 64, 1)       59        ['conv3d_26[0][0]']           
                                                                                                  
 conv3d_28 (Conv3D)          (None, 38, 128, 64, 1)       59        ['conv3d_27[0][0]']           
                                                                                                  
 conv3d_29 (Conv3D)          (None, 28, 128, 64, 1)       12        ['conv3d_28[0][0]']           
                                                                                                  
==================================================================================================
Total params: 90509275 (345.27 MB)
Trainable params: 90509275 (345.27 MB)
Non-trainable params: 0 (0.00 Byte)
__________________________________________________________________________________________________
…
